FYI: 
X_train: (783, 32, 32, 1)
X_valid: (52, 32, 32, 1)
X_test: (209, 32, 32, 1)

FYI: 
Y_train: (783, 2)
Y_valid: (52, 2)
Y_test: (209, 2)

____________________________________________________________________________________________________
Layer (type)                     Output Shape          Param #     Connected to                     
====================================================================================================
convolution2d_1 (Convolution2D)  (None, 32, 32, 32)    320         convolution2d_input_1[0][0]      
____________________________________________________________________________________________________
activation_1 (Activation)        (None, 32, 32, 32)    0           convolution2d_1[0][0]            
____________________________________________________________________________________________________
convolution2d_2 (Convolution2D)  (None, 30, 30, 32)    9248        activation_1[0][0]               
____________________________________________________________________________________________________
activation_2 (Activation)        (None, 30, 30, 32)    0           convolution2d_2[0][0]            
____________________________________________________________________________________________________
maxpooling2d_1 (MaxPooling2D)    (None, 15, 15, 32)    0           activation_2[0][0]               
____________________________________________________________________________________________________
dropout_1 (Dropout)              (None, 15, 15, 32)    0           maxpooling2d_1[0][0]             
____________________________________________________________________________________________________
convolution2d_3 (Convolution2D)  (None, 15, 15, 64)    18496       dropout_1[0][0]                  
____________________________________________________________________________________________________
activation_3 (Activation)        (None, 15, 15, 64)    0           convolution2d_3[0][0]            
____________________________________________________________________________________________________
convolution2d_4 (Convolution2D)  (None, 13, 13, 64)    36928       activation_3[0][0]               
____________________________________________________________________________________________________
activation_4 (Activation)        (None, 13, 13, 64)    0           convolution2d_4[0][0]            
____________________________________________________________________________________________________
maxpooling2d_2 (MaxPooling2D)    (None, 6, 6, 64)      0           activation_4[0][0]               
____________________________________________________________________________________________________
dropout_2 (Dropout)              (None, 6, 6, 64)      0           maxpooling2d_2[0][0]             
____________________________________________________________________________________________________
flatten_1 (Flatten)              (None, 2304)          0           dropout_2[0][0]                  
____________________________________________________________________________________________________
dense_1 (Dense)                  (None, 512)           1180160     flatten_1[0][0]                  
____________________________________________________________________________________________________
activation_5 (Activation)        (None, 512)           0           dense_1[0][0]                    
____________________________________________________________________________________________________
dropout_3 (Dropout)              (None, 512)           0           activation_5[0][0]               
____________________________________________________________________________________________________
dense_2 (Dense)                  (None, 2)             1026        dropout_3[0][0]                  
____________________________________________________________________________________________________
activation_6 (Activation)        (None, 2)             0           dense_2[0][0]                    
====================================================================================================
Total params: 1,246,178
Trainable params: 1,246,178
Non-trainable params: 0
____________________________________________________________________________________________________
Not using data augmentation
Train on 783 samples, validate on 52 samples
Epoch 1/50
…
